chatbot_model.pth (torch, 135325 bytes, 6 tensors)

fc1.weight f4 [128, 174]
00000000: a03f 72bd aedc a4bc aaa4 a8bc c3bf c03d
00000010: 8ec9 f63d 6e32 08be 7368 7d3e b0f4 f6bd
00000020: 87e0 d73c 9028 2fbd f353 27bd 16d1 5cbb
00000030: d39c 22bd a56d a03d e074 ed3b f44e 1bbe
00000040: c7d0 193e 8253 08be 1d96 92bd 0f3d bebd
00000050: a099 ffbd aee4 06be 9a9f 26be 744e 7b3e
00000060: 7577 5bbd 637b 13be 2651 0d3e 5e57 14bd
00000070: d5e8 1a3e 1f68 89bd 51c6 213e 174e 8c3d
00000080: 0f41 99bd 80ad 91bd 0ed3 13be 71f6 afbd
00000090: 3b91 dd3c 43b3 913e 67ca 18bd 5426 3d3e
000000a0: fb10 85bc 6b33 f8bd cd3d 5bbd 9b87 f9bb
000000b0: c03e 05bb 79e9 763e e18c dabd e321 c6bd
000000c0: 999b 0dbd 3843 9ebc 22a3 a9bd d8aa 20be
000000d0: dc8e fcbd 90a2 8a3e 6ac4 2abe f3ba 06be
000000e0: ddf0 3e3e 9e12 533d 0840 0fbe b921 a1bd
000000f0: 1de3 e7bc 6886 bcbc 20d7 143e 7cef af3d
00000100: 77d1 5fbd 200d 063d 40a9 24be 1b83 febd
00000110: 706e 203e 6db6 e1bb 48c9 b4bd 05bd 713d
00000120: 38ad 953d 4357 353e 6e7f 8c3d 032e d2bd
00000130: be97 3d3e d0b0 b73c 0ca9 b03d 15b3 a1bd
00000140: a2c4 a3bc aba9 2339 0b69 c23c ae00 81bb
00000150: 0302 493b a701 06be 20ff 0abe 90c1 fbbd
00000160: b2a4 d0bd d5f1 393e 90e2 813d 88a8 a9bb
00000170: 50ba 813d b0cd 833d f363 203b d08e 37bd
00000180: ffb6 88bd 3235 16be c090 d5ba a896 8c3d
00000190: bbc3 af3e 4451 b03e fd69 5ebd a4f0 babb
000001a0: 263c 9b3d fe4e 3d3e c0de 843d 8898 2f3e
000001b0: 807c 2f3c 71ae 8dbb 8a51 053e 8296 423d
000001c0: 60fc 8bbd 8fe5 bbbd de59 f4bc 6b00 f53d
000001d0: ca2b 26ba 6e6d 263b 8eec b83d dfa2 babd
000001e0: f21b 7abd 579e 723e faa3 37be 5cbf 683e
000001f0: bfe6 93bd 7571 c2bc 7ab2 663e fcb7 1abe
00000200: b095 f2bd 8c75 8bbd d8d4 233e 8720 d43c
00000210: 2d2e 94bd ad6b 36bd 77aa ec3c 2ea9 d2bc
00000220: 9293 a63c dd8d 4f3d 231d d3bd f5c9 ef3d
00000230: 8a18 0bbe 78fb c3bd 193e de3d 2210 95bd
00000240: d775 fdbd 9ccd 8a3d 842b 12bd 595f 65bd
00000250: d5c9 0cbe 2212 2e3e d08e 973c a18e 273c
00000260: 61fd 053e 9297 de3c 516b 06be 622e 6cbd
00000270: d651 963d 485b 533d dd52 74bd e88e e7bd
00000280: 0fcf c6bd b48d 3a3e 5bf2 ec3c ce19 d43d
00000290: 7185 983d e9c9 abbc 4459 dd3d e159 a43e
000002a0: 5fd9 c43c b258 04be bb74 dbbc 0fac 113e
000002b0: baac e33d 27e2 c93c ea6b ea3c b917 aebd
000002c0: 8144 da3d cd17 c53b da80 c3bd 036b 36be
000002d0: 9248 69bc ce64 25bb f69e e4bd c33e d6bd
000002e0: 2a14 aa3d 998d acbc df96 1b3d f9c8 be3d
000002f0: ab2c 2e3e 91c0 5a3d cc44 9abd 96b6 863e
00000300: 75b7 e7bb 5db8 913d bcd0 883d 0de8 a63e
00000310: 4060 5a3d bd50 3c3d 0cc3 2e3e 3523 663e
00000320: 13c6 46bd dc03 41be 3dcc 10be 6001 dfbb
00000330: 79c3 7dbd c47a 6abc 2c6d 40bd e158 2cbd
00000340: 066b 453e a59f 893d 798c 0fbd 6664 f5bd
00000350: dca1 093c 7c22 7e3d 65f3 593d 4b90 a93d
00000360: 692e 5bbe b417 1dbc 461c 90bd d2fb 2cbe
00000370: 378c 933d b2ac 30bd d873 883e a1bd 543d
00000380: 48a0 393e d8a4 45bd 8b65 523e 3011 143e
00000390: 8426 943c cd6a 00be c77c 533d 897a ddbd
000003a0: a901 fbbd 2e14 06be dd3e 263e 5055 0dbe
000003b0: cad2 97bd c012 04be bd94 6a3d aaf8 fabd
000003c0: bdc4 0f3e 1aba f1bd fb43 39bd 145a eebc
000003d0: c1f6 233e cae1 57be d153 edbd f9c2 453d
000003e0: 2ce1 9c3d 4087 ea3d 2afc 763d 4690 34be
000003f0: a781 c3bd c17b 3a3e 80ea 0bbc 61ec e93b
-0.05914271 -0.02012476 -0.02058633 0.09411576 0.12050162 -0.13300487 0.24746875 -0.12058389
0.02635218 -0.042763293 -0.040851545 -0.003369396 -0.03970034 0.07833413 0.0072465986 -0.15166837
0.15021048 -0.13313106 -0.07157538 -0.0928899 -0.124804735 -0.13173172 -0.1627182 0.24541646
-0.05358072 -0.14402537 0.13800487 -0.036216132 0.15127881 -0.06709313 0.15798308 0.06850832
-0.07483112 -0.071131706 -0.1443598 -0.08591927 0.02704679 0.28457078 -0.0373024 0.18471652
-0.016243448 -0.12119182 -0.053525735 -0.0076150424 -0.0020331591 0.241125 -0.10671402 -0.09674432
-0.034572218 -0.019319162 -0.08283068 -0.15690172 -0.12331936 0.2707715 -0.16676489 -0.13157253
0.1864657 0.051531427 -0.1398927 -0.0786776 -0.028306538 -0.023013309 0.14535189 0.085906
-0.05464312 0.03272736 -0.16080189 -0.1242735 0.15667129 -0.006888202 -0.08827454 0.059018154
0.073084295 0.17709069 0.06860243 -0.10262682 0.18514916 0.022423178 0.08625993 -0.07895485
-0.019991223 0.00015608098 0.023731729 -0.0039368486 0.0030671365 -0.13086568 -0.13573885 -0.122927785
-0.10187663 0.18158658 0.063420415 -0.005177561 0.063343644 0.06435716 0.0024473637 -0.04481393
-0.06675529 -0.1466873 -0.0016293749 0.06864673 0.34329018 0.34437 -0.054300297 -0.005704956
0.07579832 0.18487164 0.06487799 0.1714803 0.010710835 -0.0043237736 0.13019386 0.047506817
-0.06835246 -0.09174644 -0.029828008 0.1196297 -0.00063389225 0.0025394815 0.09029494 -0.091130964
-0.061061807 0.23693214 -0.17933646 0.22729248 -0.07221746 -0.023735741 0.22529021 -0.15109247
-0.11844957 -0.0680953 0.15999162 0.025894416 -0.0723537 -0.04453628 0.028889878 -0.025715437
0.020334039 0.0506724 -0.10308292 0.11708442 -0.1358358 -0.09569448 0.10851688 -0.07278468
-0.12375992 0.06777498 -0.03568603 -0.055999134 -0.13748868 0.16999105 0.018500715 0.0102268765
0.13084938 0.027171884 -0.13126875 -0.05766142 0.07339828 0.051600724 -0.059649337 -0.11306554
-0.09707462 0.18218118 0.028924158 0.10356484 0.07447327 -0.020970302 0.10808042 0.32099822
0.024029432 -0.1292446 -0.02678906 0.14225791 0.11116929 0.02464397 0.02861591 -0.085006185
0.10657597 0.0060148 -0.09546061 -0.17814259 -0.0142384935 -0.0025237086 -0.11163132 -0.104611896
0.08304627 -0.021063613 0.03798568 0.09315676 0.17009227 0.053406302 -0.07532653 0.26311177
-0.0070714303 0.07115243 0.06680438 0.32598916 0.053314447 0.045975436 0.17066592 0.22474368
-0.048528742 -0.18849128 -0.1414041 -0.006805584 -0.061953995 -0.014311496 -0.046979114 -0.04207695
0.19279107 0.06719903 -0.035046075 -0.1198204 0.008400407 0.062044606 0.053210635 0.08279475
-0.21404423 -0.009588171 -0.07036643 -0.16892937 0.07204478 -0.043133445 0.26650882 0.051938657
0.18127549 -0.04825291 0.20546548 0.14459682 0.018084772 -0.12540741 0.05163267 -0.10814387
-0.12256176 -0.13093635 0.16234918 -0.13802075 -0.07413252 -0.12897778 0.057270754 -0.1225446
0.14039893 -0.11803074 -0.045230847 -0.029095687 0.16012098 -0.21082225 -0.11588252 0.048281644
0.076601356 0.11451578 0.060299076 -0.17633161 -0.095462136 0.18211271 -0.008539796 0.0071387743

fc1.bias f4 [128]
00000000: 1012 083e c723 033e 9e86 1c3e 1a46 a63d
00000010: f8a8 1b3e f6e1 343e a4d3 2e3e 2928 033e
00000020: d63a 1e3e fb67 003e b830 2f3e 948b 9e3d
00000030: 66eb 4b3e 3777 c23d 7e2e 0d3e fedc a33d
00000040: b7b0 cb3d 5426 4e3e 6b25 1a3e f8c8 403e
00000050: d4e8 5c3e 66c5 e33d 7b3e 703e 7b06 223e
00000060: fe53 023e 184f 3b3e 8c35 533e 72b4 103e
00000070: bc10 183e c03e 233e fde8 f93d 9527 2a3e
00000080: d467 0c3e 6979 e33d 195a 4d3e 636d 053e
00000090: 948b d63d df03 3a3e bd73 143e 788a ba3d
000000a0: a34b 143e 681d 323e 9602 4d3e 551b 063e
000000b0: 1c94 0d3e 3fa6 193e 083c 043e 0f3f 2d3e
000000c0: f6a8 023e b67c f43d 25ae b83d 596b 203e
000000d0: 4c81 fb3d 40d9 1f3e e91b c53d 04c7 383e
000000e0: 773d ba3d 2833 4b3e 3d33 193e bb11 243e
000000f0: 40e7 5b3e 10f7 5c3e 194c 3e3e 7014 a83d
00000100: 5feb 103e 6db1 323e 5635 293e 3520 193e
00000110: a4b2 f83d 591f 943d 0942 273e d3a1 223e
00000120: d0b9 c03d bdbb 913d 3289 0f3e 0674 6e3e
00000130: d609 273e 055b dd3d 797a 053e e627 f23d
00000140: 979e c33d 9814 063e 8e9a d63d d738 f43d
00000150: a8f1 ae3d b445 2e3e 1f49 1d3e f28b 583e
00000160: 7693 273e ec5b 263e 1d09 f03d 2e97 713d
00000170: 9682 033e 034c 4b3e ae15 f43d 649b 4d3e
00000180: c200 213e 05d1 843d 07b4 0e3e efb8 0c3e
00000190: f6e5 873d c3df 633e 39e7 093e 6ff1 2c3e
000001a0: 7695 2f3e 394d b53d dc76 0b3e 86d4 073e
000001b0: 895e 703e 2533 0a3e b4d3 363e efc9 0c3e
000001c0: 005e 063e f361 fb3d 1e22 393d 2a51 e43d
000001d0: d106 d13d bcfb fa3d bdfd 023e cd50 2a3e
000001e0: 42bf 463e 9505 ca3d 834a 083e 0fdf 423e
000001f0: db4a 043e 4d6d fd3d f7f5 df3d 453b 1b3e
0.1328814 0.12806617 0.15285727 0.081188396 0.15201175 0.17664322 0.17072922 0.12808289
0.15452132 0.12539665 0.17108428 0.07741466 0.19914016 0.09495395 0.13787267 0.08001135
0.09945815 0.20131809 0.15053336 0.18826663 0.21573192 0.11121635 0.23461334 0.15822785
0.12727353 0.1829189 0.20625895 0.14131334 0.14850134 0.15941906 0.12202642 0.16616662
0.13711482 0.111071415 0.20053901 0.13030009 0.10475841 0.18165539 0.14497276 0.09108442
0.14481978 0.1739403 0.20020518 0.13096364 0.1382603 0.15004824 0.12913525 0.16918586
0.12759766 0.11937849 0.090175904 0.1566595 0.12280521 0.15610218 0.09624464 0.18044668
0.09093755 0.19843733 0.14960952 0.16022389 0.21474934 0.21578622 0.18583716 0.08207023
0.14152287 0.17450495 0.16524252 0.14953692 0.12143448 0.072325416 0.16333784 0.15882044
0.09410441 0.07115886 0.1401718 0.23286447 0.16312346 0.10808376 0.13035001 0.11824016
0.09551733 0.13093793 0.10478698 0.11924904 0.08542186 0.17018777 0.15359925 0.21147135
0.16364846 0.16246003 0.11720488 0.058982067 0.12842783 0.19853215 0.119181976 0.20078808
0.15722945 0.0648518 0.13935862 0.13742422 0.066356584 0.22253327 0.1346711 0.16888975
0.17146859 0.0885262 0.1361956 0.13264665 0.23473562 0.13496073 0.17854196 0.13748907
0.13121796 0.12274542 0.045198552 0.11148293 0.10206378 0.12255046 0.12792106 0.16632386
0.19408897 0.09864346 0.13309674 0.19030403 0.1291918 0.12374363 0.10935586 0.15159328

fc2.weight f4 [64, 128]
00000000: fc32 833d f097 183e 5ae5 c4bd f153 9cbd
00000010: b2ab d73d f401 c0bd 88ec 283c 12bd 77bd
00000020: dd11 93ba 3807 8bbe 788d 09be 8f11 b03d
00000030: 0b2b 04bd 98f4 5c3e da41 4b3e 5af7 563e
00000040: 8595 09be e4d3 1fbe daa3 d8bc 564a 203e
00000050: a27c 783c 03b2 35bd a874 4fbe c8a1 40bd
00000060: 8f56 de3d c147 64be fe93 dd3e 4111 d03e
00000070: 969d b93d 076d d339 5f47 d4bd 76ff 81be
00000080: 7080 7f3e f234 40be dfe5 ce3c 915a 4fbd
00000090: b073 8c3c 2768 9f3d 9c71 b0bc 83e4 0f3e
000000a0: df47 123e e88c 01be e92e ac3e 26f3 9bbd
000000b0: ff8a bf3d ad52 7e3e d27d 77be b373 133e
000000c0: 2b16 823d f195 fe3c 33c3 09be 4d2d 3f3e
000000d0: 2bae bcbd a288 7abc d3ed 5e3d b537 c33d
000000e0: 7034 d5bd 77b7 353d 5a30 bb3c 9e12 25be
000000f0: 127a 58be e4cd e03e 5497 703e 326d 653e
00000100: a694 bf3d 9f90 80be 31ad e33d 8428 71bd
00000110: 58e4 eb3d f620 923d 4028 f4bd 387a 133e
00000120: 9d14 20bd bae3 e7bd 1b7a 82be 87d5 d53b
00000130: 12fb 663d da84 dd3d 0468 64be 0470 4b3e
00000140: 3aff 1b3b 448a 363e 479c d03d 108e 7ebd
00000150: 8660 15be b188 ab3e bec5 92bd 46e8 bebd
00000160: 26c7 edbd 6b86 b0bd abfe a13d c812 60be
00000170: 9f48 db3d aa79 1dbe ccdb 4f3c 7343 0d3b
00000180: e354 a13e bec6 30ba 9849 3f3e 4553 51bd
00000190: 58da 3b3e fed3 d23d 55c0 813e 7fbc 5dbd
000001a0: 1948 1e3e 44d3 28be 408a 89bd df53 2ebe
000001b0: 452e b0bd c788 0f3e 6bc9 06bd e609 7cbe
000001c0: e731 f83e 7fa1 c63d 5b66 3a3e 70b7 433d
000001d0: 052a 65bd e5a5 c23d 9fb0 a9be 1cf6 24bd
000001e0: 14d6 5fbd f0df 89bd 5335 e7bd b188 723e
000001f0: 2660 4ebe 787b 7d3e 7729 30be 9c53 dfbd
00000200: bc13 0c3e ca7b dd3d 6853 59bd b842 f23d
00000210: 38dc 4c3e e5df 213e f539 8cbe b99a 883d
00000220: 1d5f 0b3e 09e4 29be 1e58 f13d c041 bc3c
00000230: 9572 c8bc 8d35 04be 72cb 533c a4cf e53d
00000240: 4545 253e f2b4 343d 2e03 f9bd b269 eabd
00000250: 50ee 183c c614 babd 312b 1ebd cb41 9cbd
00000260: 5ebf 8c3d 58b1 d63d 6f97 0cbd b7dc 143e
00000270: dcfb a03c 6052 6bbd 863e 21be 9044 3ebe
00000280: 4226 793d 97d5 8b3c 0a8e 82bd fc24 723e
00000290: b7b1 0ebd 24f8 263e bede 983e 578a 3a3e
000002a0: 2ad9 123e ce89 9f3e 1128 0fbe fea9 14bc
000002b0: db13 9dbe 4b41 b73d 3683 373d 19b4 023e
000002c0: ba2c 92bd 89d7 ca3c b36f 643d 7764 5cbe
000002d0: dd20 3bbd 9150 203e 7c60 1d3e 4409 01be
000002e0: 91a7 ae3e af91 e9bd 5d19 be3d bb57 043e
000002f0: a2a7 113e d072 80be a0c0 87be 6a15 19bd
00000300: 77e8 c5be 2813 13be e365 94bd 6a05 1f3e
00000310: 8202 bf3d a501 623d 7aa0 433c b09b 3dbe
00000320: e693 f03d 4aee 5c3e 6572 673e 3ee4 b33c
00000330: 543d b33e f365 f33d 377f 613d 7b62 43bd
00000340: b1ff b73a 8d72 8e3c 5ba3 1b3e d17d 2c3d
00000350: 39a5 323e 0fd3 29be 8e12 a63e d1b1 afbc
00000360: f175 a5bd 7e3f 39be 3b2e 893e bd1a 8abc
00000370: 3a6a 62be c641 e03d e3ea 1abd a9b0 4dbd
00000380: b1d4 acbd 1437 be3e fe3a 8cbb 0fd5 e83d
00000390: 77ee 373d f1f3 083c 2af0 47be e63d 103d
000003a0: 92a7 0b3d 0cac 90bd a6e0 633e 5f3e 22bd
000003b0: 7bb4 b3be 75f2 bfbc 6570 b03c 70c7 d63d
000003c0: da41 26be 1343 173e bd3f 1b3e c3fa 9f3e
000003d0: 51fe f03d 83c9 bebc 3d82 a03e 212e 4c3e
000003e0: de64 2c3c 6df0 893e cd47 173e 9ff9 943d
000003f0: 0e76 20be af4f 603c dac1 d4bc cef1 6bbd
0.06406209 0.1490171 -0.09614058 -0.07633198 0.10530795 -0.093753725 0.0103103 -0.060483046
-0.0011220534 -0.27153945 -0.13432872 0.08597099 -0.03226761 0.2157768 0.19849339 0.20992795
-0.13435943 -0.15608174 -0.026445318 0.15653357 0.0151664335 -0.04435922 -0.20259345 -0.047029287
0.108563535 -0.22292997 0.43276972 0.40638164 0.0906326 0.00040326288 -0.103651755 -0.25390214
0.24951339 -0.18770197 0.025256095 -0.05062348 0.017145008 0.07783537 -0.021538548 0.14052014
0.14285229 -0.12651408 0.3362954 -0.07614736 0.09352683 0.24836226 -0.2416909 0.14399604
0.063518845 0.031077357 -0.13453369 0.18669625 -0.092129074 -0.015291365 0.054426026 0.0953211
-0.10410392 0.04436442 0.022850204 -0.16120383 -0.21140316 0.43907082 0.23495227 0.22404936
0.09354524 -0.25110337 0.11117018 -0.05887653 0.115181625 0.07135193 -0.119217396 0.14402092
-0.03908216 -0.11322732 -0.25483784 0.0065256986 0.056391783 0.10816355 -0.22305304 0.1986695
0.002380325 0.17826182 0.101860575 -0.0621472 -0.14587602 0.33502725 -0.071666226 -0.093216464
-0.1161025 -0.08619388 0.07909902 -0.21882164 0.10707211 -0.15378442 0.012686681 0.0021555095
0.31510076 -0.0006743482 0.18680418 -0.051104803 0.1834501 0.102943406 0.2534205 -0.054134842
0.1545719 -0.16486841 -0.06715822 -0.17024182 -0.08602575 0.1401702 -0.03290693 -0.24613151
0.48475572 0.09698772 0.18203108 0.04778236 -0.055948276 0.09504298 -0.33142564 -0.04027377
-0.05464752 -0.06732166 -0.11289468 0.23684956 -0.20153865 0.24754131 -0.17203318 -0.10904619
0.13679403 0.108146265 -0.053058058 0.11829132 0.20005882 0.15808065 -0.27387968 0.06670136
0.13610502 -0.16590895 0.11784385 0.02298057 -0.0244687 -0.12911053 0.012926923 0.11221245
0.16139705 0.044117875 -0.121588096 -0.11445941 0.009334162 -0.090859935 -0.03861541 -0.076297365
0.06872438 0.104830444 -0.034324106 0.14537321 0.019651346 -0.057451606 -0.15746507 -0.18580842
0.0608275 0.017069621 -0.06374748 0.23646921 -0.03483745 0.16305596 0.2985744 0.18216835
0.14340654 0.31159824 -0.13980128 -0.009073732 -0.3067921 0.089480005 0.044802867 0.12764014
-0.07137437 0.024760978 0.055770587 -0.215227 -0.045685638 0.15655734 0.15368837 -0.12601191
0.34112218 -0.1140474 0.092821814 0.12924092 0.14224103 -0.25087595 -0.2651415 -0.037373938
-0.3865392 -0.14362776 -0.07245996 0.15529409 0.0932665 0.05517735 0.011940116 -0.18516421
0.117469594 0.21575275 0.22602232 0.02195942 0.35007727 0.1188468 0.055052962 -0.04770134
0.0014037994 0.017388606 0.15199034 0.042112175 0.1744584 -0.16584419 0.3243603 -0.021447094
-0.08079136 -0.18090627 0.26793084 -0.016858453 -0.22110835 0.10950045 -0.03782166 -0.050217304
-0.08439005 0.37151396 -0.0042794934 0.11368763 0.044905152 0.008358941 -0.19525209 0.03521528
0.034095354 -0.07064065 0.22253665 -0.039610263 -0.35098633 -0.023431042 0.021537969 0.104872584
-0.16236058 0.1477168 0.15161033 0.31246004 0.11767257 -0.023289448 0.31349364 0.19939472
0.0105220955 0.26941243 0.14773484 0.07274174 -0.15670034 0.013690873 -0.025971342 -0.05760365

fc2.bias f4 [64]
00000000: e417 983d 7d06 c2bd b74a 0fbd ec4d 15be
00000010: a477 763c 511b c83d 9ef1 11bd d0b3 fabd
00000020: e670 e7bd 6080 00bd 9fe8 8d3d 0eec d6bc
00000030: 2fdf 073e c448 243e f3ae 673d b3d3 b03d
00000040: 7ed4 903e 4991 d33c 8305 233e 3399 453e
00000050: fca9 35bc e0f5 0b3e 5cd2 8dbc 5929 4e3d
00000060: e0d5 b73c b33f 0a3e 3168 3bbd c0fb 453e
00000070: 86ae 9bbd 20f6 203e 903e 0bbc 8271 453e
00000080: bb8f 323d 1be0 203d 59dd 6ebd 74c2 f73d
00000090: b7d7 9b3d ad29 a33d 5557 713d bce7 533e
000000a0: e6c9 333e adde fa3c a60e e93d 8072 a0bd
000000b0: 966f 123e 1eb4 ac3d fc9c 0c3e 67ab 153e
000000c0: edee 7bbd b33b bd3d 653f 9d3d 886b c6bd
000000d0: a9ad 2d3e 0d35 0d3d 8ccb a63d 7c7c 76bd
000000e0: f978 65bc 25e1 973b e2dd 3f3e 24fc c03d
000000f0: 48c6 efbb 8ea4 dcbd 8543 e0bd d493 063e
0.07426432 -0.09473894 -0.034983363 -0.14580506 0.015043173 0.09770835 -0.035630815 -0.12241328
-0.113008305 -0.031372428 0.069291346 -0.026235607 0.13268732 0.16043383 0.05656333 0.086341284
0.2828712 0.025826113 0.15920071 0.19296722 -0.011087891 0.13668013 -0.017312221 0.0503324
0.02244085 0.13500862 -0.04575366 0.19334316 -0.07601647 0.15718889 -0.008498803 0.19281581
0.043594103 0.039276224 -0.058316562 0.12097636 0.07609504 0.079669334 0.058921177 0.20693868
0.17557487 0.030623758 0.11379747 -0.07834339 0.14300379 0.08432792 0.1373176 0.14616166
-0.061507154 0.09239902 0.07678107 -0.09688479 0.16960777 0.03447442 0.08144292 -0.06017731
-0.014005893 0.0046349936 0.18736985 0.09423092 -0.007317338 -0.10773574 -0.10950378 0.1314233

fc3.weight f4 [37, 64]
00000000: cc18 4f3e 6af8 debe dbd0 0f3e a30b 32bf
00000010: 63ae 363e 9f3d f0be c81d 07be ab79 2ebe
00000020: b65e c5bc 7fa9 853e 29b6 c43d f91c 2abe
00000030: 5108 fd3d 80b9 e7be ad69 553e 4037 72be
00000040: e5ff 85be 874b 4b3e 79af 68be 8bde bd3c
00000050: 9407 ccbe 3241 f2bd 95fc 55be 949d 4a3e
00000060: bb70 13be c5a5 dcbd 674e 033e 8086 57bc
00000070: e4a7 6ebe 3ec7 e43d 12d1 82be 20a4 c4be
00000080: 8df1 8e3e a436 803e 98cb 9fbe dadc 5b3e
00000090: e966 173d 4274 23be 65f1 23bd c2f9 91bd
000000a0: 3ce1 f03d ccd1 e5be bd1c 55be df99 40be
000000b0: 94b7 8cbe d44d fc3b 59e9 6cbe 7f19 b3bd
000000c0: 98bd 64bd 2ab8 03bf 4a43 0a3e 6992 86be
000000d0: 6285 8bbb 30d3 6f3d 71d0 b1bc 8e8d 9ebd
000000e0: ed3d 08bf 619e 283e 6a7b 2ebf 3fb6 9bbd
000000f0: 6610 b4be b876 00be 75f4 22bf d756 a43c
00000100: 2454 473e e14c 35be 80ec 11be fa76 f03d
00000110: 48c0 8bbe 638f 083c fdee 01be 3c48 0c3d
00000120: 23e8 af3c 6fd2 88be e51a b5bd 0d0b 0ebe
00000130: ab4f b9bc 262e 193e d141 03be 0b8e c3bc
00000140: dc1a cabe 0958 863c 44d3 883d a9bb 29be
00000150: 2501 b73d 9fad c7be 3182 c5be 37e4 f13d
00000160: 25c6 2e3e 44d3 3d3e 7b5c 6fbe 7c28 f8be
00000170: 0527 193d 0c2a 35be 9db7 a63d d98a f0bc
00000180: a463 1f3e fc6c 32be f04a 07be dfd9 013e
00000190: bc41 ebbd 3706 bfbd 4003 9fbc bf5b 8dbd
000001a0: d63d 793d 5c04 28bf 8f64 d43d 960b 3b3e
000001b0: ba1b 713d 4456 63be c713 82bd b149 37bd
000001c0: e328 92bd 7ac7 073d 9cd5 c6bd 8e53 66bd
000001d0: 9774 003e 80c7 bf3c 5122 99bd 0c01 e8bd
000001e0: e1e6 86be 671f 4d3c f5af 07be 7874 023e
000001f0: 0d7b fdbe 1840 bebe dba3 843d 83ff a83d
00000200: 5a91 c63d baa8 aebe 58a7 a8bd 11f5 57be
00000210: a35e c8be d467 de3d 60e0 efbc 2649 a7be
00000220: b871 00be a9f4 f53d 1d4c c43d 8793 68bd
00000230: 073e 0e3d d8fa e33d ed01 97be f1de 9abe
00000240: 037b 38bd dcf8 173e c076 2dbe e7c2 1b3e
00000250: 9573 653e 1078 833d 4c98 efbe 35d7 283d
00000260: 55de b3bd 1cc7 20be 8ba7 73be bc6d 4f3e
00000270: e3c7 0b3e 7417 6fbe f190 41bf e7bb 4ebd
00000280: e42c 253e e464 39be d71a 803e 19ad 923d
00000290: 9938 8fbe 946a a73d bb03 d9bb 7547 adbe
000002a0: 7178 52bd 8e89 b2bd 52c7 553b 87a1 353e
000002b0: 0fd2 f9bd 6fff 21bf 618f 9ebb ced8 92bb
000002c0: cfba 4dbe 16a9 98be 0ef1 383e b010 98be
000002d0: d69e cabe 58d5 a0be 3201 363e 6209 b639
000002e0: 1683 7c3d 26c5 ddbe 3e61 953d 1a18 a0be
000002f0: 925c 91bd 056e b3bd ad6b b8be 6d16 4fbc
00000300: a768 96be 4732 d33c d89f 64be 5fd1 2a3e
00000310: c62c 8e3d f212 943d 646e d93c 3980 cebd
00000320: 778e 8abd 307f 40be 02e2 643c 2ea0 d8be
00000330: fbcd 053e e602 743c 7999 b8bd 46be d7be
00000340: 6027 ba3d c16f 343e 3e84 ce3d 995d d43b
00000350: ba1e a33d 03b5 b53d 156f d9be 508c d7be
00000360: 7b5e b1bc d49b 2bbd b72d 79be f010 a93c
00000370: c4b2 93bc 126c 18be f9e6 89be a942 98be
00000380: 40dc bcbe c027 50be 2f08 01bd 65ee bebe
00000390: 1520 abbe 7310 653e b040 933d a30d 073e
000003a0: 4fb7 3cbf 8250 1f3d 8317 12bd 85b4 babe
000003b0: 46e9 2f3e 9cba 07bf e065 983d b3cc d6bd
000003c0: 3d7e d1bd 5fb9 dcbc 2dae ddbe 0a89 463e
000003d0: 16c7 65be 730a cd3d 14f2 183e 68ca 4dbf
000003e0: a1d5 c5bd 11f1 143e 4608 d6be caa5 1ebd
000003f0: e417 023e 143f 7fbe 6d68 53be 873b 5abe
0.20224303 -0.435489 0.14044516 -0.69549006 0.17839961 -0.46922013 -0.13194954 -0.170386
-0.024093013 0.26105878 0.09605057 -0.16612615 0.12355102 -0.45258713 0.20841093 -0.23653889
-0.26171795 0.1985303 -0.22723188 0.023177406 -0.39849532 -0.11828841 -0.20897134 0.19786674
-0.14398472 -0.107738055 0.12822877 -0.013154626 -0.23306233 0.11170815 -0.25550133 -0.38406467
0.27918664 0.25041687 -0.31210017 0.21470967 0.036963377 -0.15962318 -0.040025134 -0.07127716
0.1176171 -0.44886625 -0.20811744 -0.18808697 -0.2748381 0.0076997075 -0.2313589 -0.08745097
-0.055844873 -0.5145289 0.13502231 -0.26283577 -0.004257844 0.058551013 -0.021705838 -0.07741843
-0.5321949 0.16466667 -0.68157065 -0.0760312 -0.3516876 -0.12545288 -0.6365426 0.02006094
0.19465691 -0.17705108 -0.14250374 0.11741443 -0.27295136 0.008334967 -0.12688823 0.034248576
0.021472996 -0.26723048 -0.0884302 -0.13871403 -0.022620996 0.1495901 -0.12818076 -0.023871442
-0.39473617 0.0163994 0.06680921 -0.16575493 0.08935765 -0.3899965 -0.3857589 0.11811107
0.17067774 0.18537623 -0.23375122 -0.48468387 0.037390728 -0.17691821 0.0814049 -0.029363083
0.15565354 -0.17424387 -0.1321218 0.12680767 -0.11487147 -0.09327357 -0.01941073 -0.06902265
0.060849987 -0.6563165 0.103707425 0.18266138 0.058864333 -0.22200876 -0.063514285 -0.044748012
-0.07136705 0.03314922 -0.097087115 -0.056232028 0.12544475 0.023410559 -0.074772485 -0.11328325
-0.26348022 0.012519694 -0.13250716 0.12739742 -0.49507943 -0.37158275 0.064765655 0.0825186
0.09695692 -0.34113103 -0.08235043 -0.21089579 -0.39134702 0.108596474 -0.029281795 -0.32672995
-0.1254338 0.12009556 0.0958483 -0.056781318 0.034727123 0.11131829 -0.29493657 -0.30248216
-0.045039188 0.14841026 -0.16939831 0.15211068 0.22407372 0.064193845 -0.4679588 0.041220862
-0.08782641 -0.15700954 -0.23794381 0.20256704 0.1365047 -0.2334879 -0.7561179 -0.050472166
0.16130406 -0.18104893 0.25020477 0.07161922 -0.27972868 0.08174625 -0.006622759 -0.3384358
-0.051384393 -0.08717643 0.0032620025 0.17737399 -0.121982686 -0.63280386 -0.0048388694 -0.0044814115
-0.20090793 -0.29816502 0.18060705 -0.29700232 -0.39574307 -0.31412768 0.17773893 0.00034720736
0.06164845 -0.43314475 0.07293938 -0.31268388 -0.070977345 -0.08761219 -0.3601965 -0.012639624
-0.29376718 0.02578081 -0.223266 0.16681431 0.069421336 0.07230176 0.026541896 -0.1008305
-0.06765454 -0.18798518 0.0139699 -0.42309707 0.13066857 0.014893269 -0.090136476 -0.42137355
0.090895414 0.17620756 0.10083817 0.0064808843 0.07964845 0.08872416 -0.4246756 -0.42099237
-0.021651497 -0.041896656 -0.24333845 0.02063796 -0.018029578 -0.14884976 -0.2693403 -0.29738358
-0.36886787 -0.20327663 -0.031501945 -0.37291256 -0.33422914 0.22369556 0.071900725 0.13188796
-0.73717207 0.038895138 -0.035666954 -0.3646585 0.1717883 -0.5301912 0.07441306 -0.10488262
-0.10229156 -0.02694386 -0.43296948 0.19388214 -0.22439227 0.10011759 0.14936095 -0.8038697
-0.09659887 0.14545085 -0.41803187 -0.038732328 0.12704426 -0.24926406 -0.20645304 -0.2131177

fc3.bias f4 [37]
00000000: 1610 293d 4279 e13d 3309 373c 0e7f e5bd
00000010: a5af 03be a1cd 10be d824 233d a1b1 06be
00000020: 0c32 52be 8d9a f5bc b73d 7f3e 4bc0 ea3d
00000030: 2b0c 013e 1671 603c c7ac e73d 6832 a9bc
00000040: 7f74 bb3d 23cb e83d 9715 0cbe 5356 eabd
00000050: 2d02 363e 3b8e 883d af6b 173d f4dc 573d
00000060: b341 d8bd ca9e 88bd a6e6 713d 871b bb3d
00000070: fe36 b03d 67a4 213d 18bd 663c 09ca c1bd
00000080: 0d2d 3dbe c0cc 1f3e 424d 5ebc 659d e43c
00000090: 1162 5dbe
0.041275106 0.11009456 0.011171627 -0.112058744 -0.12859972 -0.14140941 0.03983006 -0.13153698
-0.20526904 -0.029980922 0.24925886 0.11462458 0.12602298 0.013698837 0.113122515 -0.020653918
0.09153079 0.1136687 -0.13680111 -0.11442246 0.17774267 0.06667753 0.03696793 0.05270095
-0.10559406 -0.066709116 0.059057854 0.0913611 0.08604239 0.039463427 0.014083169 -0.09462363
-0.18474217 0.1560545 -0.013568224 0.027907083 -0.2161944
